IoT_Water_Monitoring_System/water_model.tflite (tflite, 11588 bytes, 6 tensors)

arith.constant f4 [3, 32]
000000 9c b1 4f be 02 87 c7 3e 56 28 dc bc 5b 09 4b 3f
       -0.20282596 0.3897019 -0.026874702 0.7931115
000010 79 4d bc 3e 0b 85 d3 3e 55 e7 f5 be 4c cf 2a be
       0.36777857 0.4131244 -0.48028055 -0.1668064
000020 66 c8 09 be bb 7c d4 3d 27 d3 58 3e a7 89 09 3e
       -0.13455352 0.10375353 0.21174298 0.13431416
000030 c3 52 37 be c5 68 80 3e 12 2b 0f be 4e ee 1e bf
       -0.17902665 0.25079933 -0.13981274 -0.62082374
000040 8a 00 2a bd a2 ea ed 3e 00 1d 9b bd 64 b1 da 3e
       -0.04150442 0.46468073 -0.07573891 0.42713463
000050 c0 52 14 3f d3 d1 74 3d b4 48 48 3e 72 f7 52 3c
       0.57938766 0.059770416 0.19558984 0.012876378
000060 89 62 79 3f ba af d7 3e 3d 16 0e bf d5 5c d2 be
       0.9741598 0.42126256 -0.5550268 -0.4108645
000070 14 93 a5 bd ba 85 41 be ba 41 d6 3e a9 91 0f 3f
       -0.080846936 -0.18898669 0.4184702 0.56081635
000080 ef ab 05 bc ba 01 a5 3d 87 38 ac 3e 02 b2 11 3d
       -0.008158668 0.0805697 0.33636877 0.035570152
000090 f3 eb 8e 3d 12 06 ae 3e 41 2d 43 3d 5d d7 11 3e
       0.069785975 0.33989006 0.04765058 0.14242311
0000a0 9e e6 a8 3e 51 e5 08 3e 19 39 13 be a6 9d 55 3e
       0.32988447 0.13368727 -0.1437725 0.2086092
0000b0 4b 75 1e 3e ab c2 a7 3d 3c d3 37 3e aa e4 cb bd
       0.15474431 0.08191427 0.17951673 -0.099557236
0000c0 37 3e 62 3d 9e c6 86 3e 6a 5d 40 3e 1e d0 30 bc
       0.055235114 0.26323408 0.18785635 -0.0107918065
0000d0 9d f5 95 3e af 6b 57 be 59 05 57 bc be 73 31 3e
       0.2928895 -0.21037172 -0.013123834 0.17329308
0000e0 fc fa 5b be ae 5f b5 3e 62 d0 d5 be 85 65 fb be
       -0.21482462 0.3542456 -0.41760546 -0.4910089
0000f0 f1 b9 51 bc c1 96 d9 3e c3 ab 76 3d 17 a9 a9 be
       -0.01280068 0.4249783 0.0602224 -0.33136818
000100 fd 98 0d 3f 84 ed 1d be 89 94 a4 be 73 b5 f6 bf
       0.55311567 -0.15422636 -0.32144573 -1.9274124
000110 00 09 7e be c2 ec f2 be 8a 9c c4 3e 1b 1f a9 3e
       -0.2480812 -0.47446257 0.3840068 0.33031544
000120 da 78 37 bf e6 18 7b bf 9d 89 9f bf e7 a2 20 3e
       -0.7166878 -0.98084867 -1.2463871 0.15687142
000130 0c 5f 85 bc ea 58 77 bf 65 3b 0a 3f d2 14 d6 3e
       -0.016280673 -0.9662005 0.5399688 0.4181276
000140 67 ba 87 bf a8 66 93 be 67 33 02 bf 4c ae 69 be
       -1.060376 -0.28789258 -0.50859684 -0.22820395
000150 34 57 3f bf 7d 33 d9 3e ad 17 c5 bd 5c 91 0c bf
       -0.74742436 0.42422095 -0.096236564 -0.549093
000160 c2 d4 52 bf ff 20 79 bf de ef a4 3d ed cc 7f 3e
       -0.8235589 -0.97315973 0.080535635 0.24980517
000170 ce 07 83 3f 14 a0 a7 be 9f 57 04 bf 3e 61 34 bf
       1.0236757 -0.32739317 -0.516962 -0.7046088

arith.constant1 f4 [32, 64]
000000 1a 9f 97 3e 66 c4 56 bd 68 7f 9b 3e 71 f6 86 3d
       0.29613572 -0.052433394 0.3037064 0.06589974
000010 c1 a8 97 be 4c 31 bd bb 5d 7b 44 be 7a c1 9a bb
       -0.29620937 -0.005773699 -0.19187684 -0.0047227712
000020 ce 55 d8 be 9f 5d 4c 3e 4c 48 3b bf 09 05 a3 3d
       -0.42252964 0.19957589 -0.7315719 0.07959945
000030 24 1d 77 be d9 74 35 be 7d c0 fb be 1a 13 9d 3e
       -0.2413221 -0.17720355 -0.49170294 0.30678636
000040 78 72 88 3e ba 55 01 bc 8b 23 45 3e 69 d3 c5 bc
       0.26649833 -0.007893974 0.1925184 -0.02414866
000050 fe 48 80 be 5c 7f 45 3c 32 f9 c5 3e ba 8f 8c bd
       -0.2505569 0.012054291 0.38666683 -0.06863351
000060 3c 4c 86 3e 7b 60 05 be dc 42 8d bd c7 29 96 3e
       0.26230037 -0.13025086 -0.06897518 0.2932875
000070 d5 57 16 bd a5 a1 60 3e f0 8b 45 be c3 05 7d 3e
       -0.036704857 0.21936662 -0.19291663 0.24709229
000080 1c 62 5d 3e 5c d5 83 3d 60 14 70 be 35 77 12 3e
       0.21619457 0.064371794 -0.23445272 0.14303286
000090 62 c4 2d 3e 8a 4b 09 3e 0f e5 1a bf 5a 6a d1 3d
       0.16969445 0.13407722 -0.60505766 0.10225363
0000a0 65 12 94 be b2 d1 9a 3d 23 ff a4 be 56 2c 7d bc
       -0.28920284 0.075595275 -0.32225904 -0.015452465
0000b0 38 da 85 3e 3e b2 97 bf 7c 85 d5 be 72 74 bc 38
       0.2614305 -1.185127 -0.41703403 8.986228e-05
0000c0 4d 6a cd bd 0f f0 8c 3e 27 8d ca be 33 8a 48 bf
       -0.10030041 0.275269 -0.39560816 -0.78335875
0000d0 ff 29 62 bd a1 a4 69 3e 58 e8 a3 bf 62 bb db be
       -0.05521583 0.22816707 -1.2805281 -0.429164
0000e0 b1 f5 cf be c6 5e e5 be fc f2 41 3e 3f 59 87 3d
       -0.40617135 -0.4479887 0.18940347 0.06608819
0000f0 70 cc 56 bb b8 c6 c5 bc 92 15 96 3e 9c aa b5 be
       -0.0032775663 -0.024142608 0.29313332 -0.35481727
000100 ba db 02 be 28 66 83 3d f6 29 44 3e 86 57 f8 bd
       -0.12779132 0.06415969 0.19156632 -0.12126069
000110 83 24 de 3e 34 75 54 be 3f 41 b3 3d 08 03 8a 3e
       0.4338723 -0.20747834 0.08752679 0.26955438
000120 d7 76 e8 3d d0 28 6d 3e 6f 79 eb 3d c8 e4 aa bc
       0.11350792 0.231601 0.11497771 -0.020861045
000130 f8 fd 35 bc d0 10 26 3e c0 90 bb 3e f4 3b 25 3d
       -0.011107914 0.16217351 0.36633873 0.04034038
000140 21 fe 04 be 3d 6b 61 3e 5e 90 23 3d f3 8b a0 3e
       -0.12987567 0.22013564 0.0399326 0.31356773
000150 f3 c8 50 3e 3b 93 41 3e df 4f 42 3e cb 0c aa bc
       0.20389156 0.1890382 0.18975781 -0.020758053
000160 e2 e8 e6 3d c6 0b 40 3d 4c df 9f 3e 86 e8 a0 bd
       0.112748876 0.046886228 0.3122505 -0.0785685
000170 3d 41 84 bd 72 a6 38 be 92 8b f5 3d ba 94 74 be
       -0.06457756 -0.18032244 0.119895115 -0.2388486
000180 44 0f 98 3e 18 67 05 3e db 39 3f 3e f4 fd 01 3f
       0.29699147 0.13027608 0.18674414 0.50778127
000190 21 af 2d be a5 83 8c bb 1b 4e 36 3d 5d 8f 7a bd
       -0.16961338 -0.004288154 0.04450808 -0.061171878
0001a0 45 50 1d 3e 57 a9 0a 3e b1 0b a6 3e d6 bb 58 be
       0.15362652 0.1354116 0.32430795 -0.21165404
0001b0 04 19 86 3e a0 01 57 bd 63 2f 7e 3e 7c a2 8c be
       0.2619096 -0.052491784 0.24822764 -0.27467716
0001c0 8d cc b8 3e 03 b5 5c 3d 9e e6 e0 3e c1 81 28 3d
       0.3609356 0.053883564 0.43925947 0.041139368
0001d0 0a 61 0d 3e 71 7f 14 be 35 dc 6c bc 39 49 12 be
       0.13806549 -0.1450174 -0.014456798 -0.14285745
0001e0 cc 59 ea 3e 37 6c e6 bd 75 71 45 3d af 32 4f be
       0.45771635 -0.11251109 0.048203904 -0.20234178
0001f0 c0 fe 9b 3e 27 86 e8 3d 91 5c 3a 3e 62 08 eb 3d
       0.30467796 0.113537125 0.18199374 0.11476208
000200 f9 c8 44 be 9a 0f 48 3c 97 0b fc be 09 19 9d bd
       -0.1921729 0.012210751 -0.49227592 -0.07670791
000210 3d ee b8 be ed 01 eb be 0b 54 8d be 97 01 0f bf
       -0.3611926 -0.45899907 -0.27603182 -0.558618
000220 e9 98 6d be 65 96 8e 3d 3f 4f 07 3e f1 a7 17 be
       -0.23202862 0.06962279 0.13213824 -0.14810158
000230 71 15 22 3e 6d 50 2a 3e f0 2b 24 bd 65 93 79 be
       0.15828492 0.16632243 -0.040080965 -0.24372633
000240 03 41 3e bc a7 d5 aa bd e8 8b 11 bc 38 b9 7c be
       -0.01161218 -0.08341532 -0.008883454 -0.2468003
000250 21 d5 e5 3d dd 22 89 be 08 93 ce 3d 62 8a 40 bd
       0.11222292 -0.2678441 0.10086638 -0.047006972
000260 3c 89 c4 3d 65 4c f3 bd bd f7 4b be 87 ae 9a be
       0.09596488 -0.118798055 -0.19918723 -0.3021128
000270 e9 fa ee be a2 a5 da 3b e8 2f 80 be 26 ed e7 be
       -0.46675804 0.006672577 -0.2503655 -0.45298117
000280 34 8f 0c be 59 6b 13 be 3c 66 d2 be ca 3e 4f bc
       -0.13726503 -0.14396419 -0.41093624 -0.012649247
000290 e9 90 e5 be 1f 55 5f 3b 4c 40 15 be 41 8f b3 be
       -0.4483712 0.0034077836 -0.14575309 -0.35070232
0002a0 47 ef b0 be 89 d2 5e 3e bf d9 ac bd 31 79 73 be
       -0.34557554 0.2176 -0.08439969 -0.237767
0002b0 e5 fb 6a be f7 21 1d 3e 7f e4 6f 3d 15 43 e0 be
       -0.22947653 0.15344988 0.05856752 -0.4380118
0002c0 ee b5 08 3e ab 95 c4 3d ee b8 7a be 74 fb 80 3e
       0.1335065 0.095988594 -0.24484608 0.25191844
0002d0 21 70 7c be b6 8f e1 be 94 a9 17 3d 00 e1 c9 be
       -0.24652149 -0.44054955 0.037026957 -0.39429474
0002e0 3e 36 35 be b3 af 3a 3d 71 fc b2 3d c8 c8 66 3e
       -0.17696473 0.045577716 0.087395556 0.2253753
0002f0 f3 26 23 3d a4 ed a4 3d 4e ee 06 be d6 17 eb be
       0.039832067 0.08053139 -0.13176844 -0.45916623
000300 2a 5b 30 bf 78 e6 2d bf 5f d9 8c be 5b 45 62 bc
       -0.68889105 -0.6792979 -0.2750959 -0.013810481
000310 9b 9f 29 3e 98 55 6b bf b3 8e 17 bf 75 e6 fb be
       0.16564791 -0.9192748 -0.59202117 -0.49199262
000320 58 d5 7f 3e c7 74 9b bd 7b 25 c3 bd 27 50 12 3d
       0.24983728 -0.07590633 -0.09528633 0.03572097
000330 11 25 0f 3e ef af a4 3d ce 68 57 bf e6 f2 a0 3d
       0.13978983 0.08041369 -0.84144294 0.07858829
000340 a2 2f 30 3e ec 61 fa bd 7d b3 65 bf 3b 1b 92 be
       0.1720567 -0.12225708 -0.89727 -0.285364
000350 d7 d8 6e bf 87 32 4c 3e 6b 35 42 bd 31 4e 43 bd
       -0.9329962 0.1994115 -0.047414225 -0.04768199
000360 61 e5 3a bf 42 e9 21 bf 24 2c 82 be 3a 85 63 bf
       -0.73006254 -0.6324655 -0.25424302 -0.8887516
000370 a3 62 4c 3e eb 83 8c 3d 40 9f 17 be 23 21 03 bf
       0.19959502 0.06861099 -0.14806843 -0.5122244
000380 0e db 82 be 5a 1e 60 bf 5f 86 1a 3d f8 38 bd 3e
       -0.2555775 -0.8754631 0.037725803 0.36957526
000390 19 1b e3 be 84 fb d1 bd 09 3b 91 bc 94 52 3f be
       -0.4435661 -0.10253051 -0.017728345 -0.18683845
0003a0 12 f8 4d 3c 1f 0e 15 3e a5 30 62 bf c4 6e 66 bf
       0.012571352 0.14556168 -0.88355476 -0.90012765
0003b0 c3 01 34 bf 28 2a 1b bc 14 ae 52 3e 66 20 39 bf
       -0.7031519 -0.0094705 0.20574218 -0.7231506
0003c0 7e d5 52 3e 01 82 30 3d ff da 05 3e ce e3 46 3e
       0.20589253 0.04309273 0.13071822 0.19422838
0003d0 ab 8a ef 3d 7f 75 a2 be dc 59 03 bd a0 50 3b 3e
       0.11696371 -0.31730267 -0.03206812 0.18292475
0003e0 19 f4 27 be db 9b 28 3d cd 85 52 3d 7d 59 68 3e
       -0.1640171 0.04116426 0.051397134 0.22690387
0003f0 39 6f 48 3e a2 10 11 bf 9b 9a 84 be 82 58 da 3d
       0.19573678 -0.56666005 -0.25899205 0.10661413

arith.constant2 f4 [3]
000000 4a b2 7e be de 4d 9c 3c 45 e5 52 3e
       -0.248727 0.019080099 0.20595272

sequential_1/dense_1_2/BiasAdd/ReadVariableOp f4 [32]
000000 3d 5e 5b 3e 16 96 91 be 92 78 ea 3d 0a 5e 01 3f
       0.21422668 -0.2843482 0.11448778 0.5053412
000010 cb 89 b6 bd f2 12 6e be 6b 2a 0b 3e 6b 1a e5 3d
       -0.08913001 -0.23249415 0.135904 0.111866795
000020 bf 6f ba be 92 c3 93 be 53 e6 30 bf 39 14 ae bd
       -0.3641338 -0.28860146 -0.69101447 -0.08499951
000030 63 88 8b bd 00 02 0a bf 27 dd 90 3e 89 28 86 3e
       -0.06813123 -0.539093 0.28293726 0.262028
000040 5b 6d ff be 64 77 c9 bc 38 58 4d bc c8 9e 02 be
       -0.4988812 -0.024593063 -0.01253324 -0.12755883
000050 c2 e6 05 bf 8d e5 99 3d 85 3f 0e be 80 51 f2 bd
       -0.52305233 0.075144865 -0.13891418 -0.11831951
000060 81 f5 14 bf 68 49 b9 3e 28 46 44 3e 7d b1 10 3e
       -0.5818711 0.36188817 0.19167387 0.14130206
000070 58 30 6d 3e db c1 8c 3e 69 25 e0 3d dd 22 52 3e
       0.23162973 0.2749165 0.109446354 0.20521112

sequential_1/dense_1/BiasAdd/ReadVariableOp f4 [64]
000000 fb 37 bd be 22 94 30 bd 31 03 69 be cf 28 83 3e
       -0.36956772 -0.04311002 -0.22755124 0.25617072
000010 96 be 7d be a4 7e a1 be b1 a2 39 be d2 d6 44 be
       -0.24779734 -0.31541932 -0.18128468 -0.19222572
000020 18 c8 5b be 52 ac c4 3d d7 9f a2 bd a6 1d 97 39
       -0.21463048 0.0960318 -0.07940643 0.00028823054
000030 52 16 61 3e af 7a fa bd 3c b8 d6 bd c1 0a 91 3e
       0.21981171 -0.12230431 -0.10484359 0.28328517
000040 1f a8 5f 3e c0 f7 96 bd 5c 7e d0 bd 05 fa 4f be
       0.21841477 -0.07371473 -0.10180351 -0.20310219
000050 72 e4 a3 bd 23 bc 86 be 71 07 22 3e 18 be 1f 3e
       -0.08002557 -0.26315412 0.15823151 0.15599859
000060 1c 01 63 bd ca 9b f6 bd 32 37 7f be 19 c2 9b be
       -0.05542098 -0.12041433 -0.24923399 -0.30421522
000070 0a cc 48 be 81 4c c9 3d 33 4e 9f be 90 1a b4 be
       -0.19609085 0.09829045 -0.3111435 -0.35176516
000080 9f ae b1 be c9 da e5 bd 30 76 7f be 21 07 87 be
       -0.34703538 -0.112233706 -0.24947429 -0.26372626
000090 16 96 4e be 19 ff 85 be a1 2c 0a bd 3e 3e 7f be
       -0.2017444 -0.26171187 -0.033733968 -0.24926087
0000a0 9e df 89 be 7e 31 71 3e 09 24 2f bd 47 be 17 bd
       -0.2692842 0.23554036 -0.042758975 -0.037046697
0000b0 3f 97 90 be 5d 66 54 3d b6 66 aa bd fb 9c a4 be
       -0.28240392 0.051855434 -0.08320372 -0.32151017
0000c0 df 34 38 be a2 6d 07 3e d2 72 1a be 28 39 a0 3e
       -0.17988919 0.13225415 -0.15082863 0.31293607
0000d0 57 d4 88 bd 0c 75 83 be 05 2f 8c 3e a5 d0 59 be
       -0.066811256 -0.25675237 0.27379623 -0.21270998
0000e0 f2 70 5b be dd b9 9d 3d 01 c8 69 bd 8e 92 0f 3e
       -0.21429804 0.07701466 -0.057075504 0.1402075
0000f0 c4 2d fe bd 7a a6 91 be fc 54 63 be 35 6f 66 be
       -0.12411073 -0.28447324 -0.22200388 -0.2250336

sequential_1/dense_1/MatMul f4 [64, 2]
000000 5f 2c 15 3f 5c 7c 27 3c 06 59 0f bf 25 58 39 3d
       0.5827083 0.010222521 -0.55995214 0.045250077
000010 82 c7 df 3e 56 c6 b1 3c 33 3f 1d be 02 b9 95 bc
       0.437069 0.02170102 -0.1535614 -0.018276695
000020 5d a1 0f 3b 02 fc 86 3e ca b5 02 3f 02 8f 4f 3c
       0.0021916248 0.26364142 0.5105864 0.012668373
000030 c4 c3 d9 be e3 db 1d 3e 58 3c bf 3e 14 d6 41 3c
       -0.4253217 0.15415911 0.37350726 0.011830825
000040 4c a6 d6 ba 83 31 59 be 1c 01 0a 3e d5 d4 01 3e
       -0.0016376465 -0.21210293 0.13476986 0.12678845
000050 09 98 76 be bf d9 66 be 56 42 9b 3d e9 7f 62 be
       -0.24081434 -0.22544001 0.07581012 -0.22119106
000060 97 5e 8d be 55 f5 10 3e 02 a5 10 3d 6c a1 1a be
       -0.2761123 0.14156087 0.035313614 -0.1510064
000070 ff 4b 0b bf 28 09 c2 bd a4 0b 2c be 5e 80 ca bb
       -0.54412836 -0.09474403 -0.16801316 -0.0061798533
000080 5f 86 03 be 4a d1 4e bc cd be 3e bd d8 6f 64 3e
       -0.12844227 -0.012623141 -0.04656868 0.2230829
000090 94 07 41 bf 5f 52 99 39 dc 10 d7 3e b3 14 aa 3d
       -0.7540219 0.00029243805 0.4200505 0.08304729
0000a0 bf 95 3d bf ba 64 0d bd 98 09 93 3a a0 c0 80 be
       -0.7405662 -0.03451989 0.0011218069 -0.2514696
0000b0 9c 64 10 3f 86 54 88 bc b3 f6 da bc 22 bf 02 3e
       0.5640352 -0.016641866 -0.026728963 0.12768224
0000c0 c1 f3 37 bf 6e 46 00 bc 59 66 42 bf 6c e0 6f bc
       -0.71856314 -0.007829292 -0.7593742 -0.014640909
0000d0 22 78 c3 3e f6 60 f0 3c 34 b7 ec 3e c3 5a 9b bb
       0.38177592 0.02934311 0.46233523 -0.0047410442
0000e0 ab 94 84 be 08 2e bd 3c 6f 07 8e 3e c3 8f c3 bd
       -0.25894675 0.023093238 0.27740046 -0.09548905
0000f0 74 48 e3 be dd 7c 8d ba 2b b9 14 3f 6b 70 84 3c
       -0.44391215 -0.0010794658 0.58095044 0.016166886
000100 50 bc 03 3f 36 f4 12 bc c7 bb 38 bf ed 5b 4b 3b
       0.5145922 -0.008969357 -0.72161525 0.0031030134
000110 d4 9e ba be a3 05 af bc c5 79 39 bc 5d 62 83 be
       -0.364493 -0.021364992 -0.011320536 -0.25660983
000120 8a 0c bf be 89 da f3 3d 1e ec e8 3e 48 55 0e bd
       -0.37314254 0.11906917 0.45492643 -0.0347493
000130 c4 ec 81 be f3 81 53 be 4a ac be be 55 d5 b0 bb
       -0.2537595 -0.2065504 -0.3724082 -0.005396525
000140 b8 3a b3 be 91 a0 ce 3c 1b 33 0a be f0 63 14 3a
       -0.35005736 0.025223048 -0.13496058 0.0005660644
000150 9e 09 14 bf e8 c2 7e bb 46 c4 20 bf c7 5f 9e bb
       -0.57827175 -0.0038873497 -0.6279949 -0.004833195
000160 63 60 ca 3e 8e bd 00 3d fe a4 dd be ee 3d 83 be
       0.39526662 0.031430773 -0.43289942 -0.25633186
000170 83 1e 28 be 71 27 7f be 0e c5 e1 3e 81 53 0f 3b
       -0.1641789 -0.2491739 0.44095653 0.002186984
000180 8c 8e 98 ba eb 86 72 3e b1 63 e1 3e 41 a2 5a 3b
       -0.0011639162 0.2368428 0.4402137 0.003336087
000190 8c cb 35 3d 1b a5 40 3e 06 38 b4 be 3e a8 cb bb
       0.04438357 0.18812983 -0.35198992 -0.0062151244
0001a0 21 5a 5d bd df cd 32 3e 32 d5 e3 3e ce b6 4d bc
       -0.05404103 0.17461346 0.44498593 -0.012555791
0001b0 22 f2 ba be 16 e6 f0 3c 6e 61 81 be 43 76 ef bc
       -0.36512858 0.029406589 -0.25269645 -0.029231196
0001c0 6d b5 fb bd aa a4 02 be c1 60 cc bd 8b ae 09 be
       -0.122904636 -0.12758127 -0.09979392 -0.13445489
0001d0 55 96 8b 3d 0a f2 17 3e 5d 4c 87 bd 29 eb 7e bc
       0.06815783 0.14838424 -0.06606362 -0.015558996
0001e0 d6 df 16 bc f8 67 2d 3e c7 21 52 be 06 5c 46 3e
       -0.00920864 0.16934192 -0.20520698 0.19371042
0001f0 07 67 e1 3e ca 80 6c 3c 31 b3 a6 be 3a 2a cd bc
       0.44023916 0.014435003 -0.32558587 -0.02504455
